…
 (802,816 * 4) + (401,408 * 4) + (100,352 * 4) + 4096 + 4096 + 1000 = 64,614,528\n\n#### ResNet152\n由于网络的参数数量过于庞大，引入torchinfo库协助计算\n```\nfrom torchinfo import summary  \nfrom torchvision import models  \n  \nnet = models.resnet152()  \nsummary(net, input_size=(1, 3, 224, 224))\n```\n得到的结果如下：\n```\n==========================================================================================\nLayer (type:depth-idx)                   Output Shape              Param #\n==========================================================================================\nResNet                                   [1, 1000]                 --\n├─Conv2d: 1-1                            [1, 64, 112, 112]         9,408\n├─BatchNorm2d: 1-2                       [1, 64, 112, 112]         128\n├─ReLU: 1-3                              [1, 64, 112, 112]         --\n├─MaxPool2d: 1-4                         [1, 64, 56, 56]           --\n├─Sequential: 1-5                        [1, 256, 56, 56]          --\n│    └─Bottleneck: 2-1                   [1, 256, 56, 56]          --\n│    │    └─Conv2d: 3-1                  [1, 64, 56, 56]           4,096\n│    │    └─BatchNorm2d: 3-2             [1, 64, 56, 56]           128\n│    │    └─ReLU: 3-3                    [1, 64, 56, 56]           --\n│    │    └─Conv2d: 3-4                  [1, 64, 56, 56]           36,864\n│    │    └─BatchNorm2d: 3-5             [1, 64, 56, 56]           128\n│    │    └─ReLU: 3-6                    [1, 64, 56, 56]           --\n│    │    └─Conv2d: 3-7                  [1, 256, 56, 56]          16,384\n│    │    └─BatchNorm2d: 3-8             [1, 256, 56, 56]          512\n│    │    └─Sequential: 3-9              [1, 256, 56, 56]          16,896\n│    │    └─ReLU: 3-10                   [1, 256, 56, 56]          --\n│    └─Bottleneck: 2-2                   [1, 256, 56, 56]          --\n\n# 由于层数较多，不方便全部展示，因此在此删去了一部分\n\n│    │    └─Conv2d: 3-443                [1, 2048, 7, 7]           1,048,576\n│    │    └─BatchNorm2d: 3-444           [1, 2048, 7, 7]           4,096\n│    │    └─ReLU: 3-445                  [1, 2048, 7, 7]           --\n│    └─Bottleneck: 2-50                  [1, 2048, 7, 7]           --\n│    │    └─Conv2d: 3-446                [1, 512, 7, 7]            1,048,576\n│    │    └─BatchNorm2d: 3-447           [1, 512, 7, 7]            1,024\n│    │    └─ReLU: 3-448                  [1, 512, 7, 7]            --\n│    │    └─Conv2d: 3-449                [1, 512, 7, 7]            2,359,296\n│    │    └─BatchNorm2d: 3-450           [1, 512, 7, 7]            1,024\n│    │    └─ReLU: 3-451                  [1, 512, 7, 7]            --\n│    │    └─Conv2d: 3-452                [1, 2048, 7, 7]           1,048,576\n│    │    └─BatchNorm2d: 3-453           [1, 2048, 7, 7]           4,096\n│    │    └─ReLU: 3-454                  [1, 2048, 7, 7]           --\n├─AdaptiveAvgPool2d: 1-9                 [1, 2048, 1, 1]           --\n├─Linear: 1-10                           [1, 1000]                 2,049,000\n==========================================================================================\nTotal params: 60,192,808\nTrainable params: 60,192,808\nNon-trainable params: 0\nTotal mult-adds (G): 11.51\n==========================================================================================\nInput size (MB): 0.60\nForward/backward pass size (MB): 360.87\nParams size (MB): 240.77\nEstimated Total
…
